saved_model.pt (torch, 251632 bytes, 10 tensors)

conv1.weight f4 [6, 3, 5, 5]
00000000: 5654 76bc e748 313d 3de3 2a3e a4da 733c
00000010: 871d a5bd 4934 0abe 9fd9 cebd 96d0 9fbc
00000020: 5f91 c73d 035a 353c 1a48 943b cc9f 9ebd
00000030: 5305 5cbd c5a8 c63d a6ea 34bb 71d3 703c
00000040: 6e79 a93c fcc3 8cbe 0cfd 8cbd 8a41 2f3e
00000050: f56f cdbd 7e62 8ebc e903 e6bd 916d f6bd
00000060: b229 0e3e bba1 2b3d facc 44bd 2022 513c
00000070: 06be c83c d302 8cbd 5583 b9bd 84fb 8c3c
00000080: 048e 6b3c 2d5f 783c e3e5 e43d ff30 b0bb
00000090: b1b9 f9bd 90a8 b13c 176b 39bd 8fb5 453e
000000a0: 86d3 373e 8bdc 64bc 8124 49be b1a3 20bd
000000b0: 3791 993e 97a0 97bc fb1c ae3c dcd3 a73c
000000c0: 0fb1 e1bc 9a3e 5e3e e0ce 14be 1dbd c5bd
000000d0: edde be3b bbfe bd3c 3d43 34be 9d2c bd3a
000000e0: 1657 2abd d4ff 58bc 5fc9 903d dd80 48bd
000000f0: 5124 22bd 0e59 d63c 60f9 50be a6cd 86bd
00000100: 59c5 fe3d ec3e 06bb 2dcd 87bd 3416 53be
00000110: ea6c d6bc 30ad a83d 5a39 9f3d cc2e 1cbe
00000120: 33b6 76be f9ac f0bd fc21 243e f59f 12be
00000130: c82c f2bd a515 003d bc51 f13d b636 f43d
00000140: 9ee9 e5bd 8854 17be 5c63 583d 3fbf 143e
00000150: 83cd 503e e873 2abe a814 4cbd e115 223d
00000160: 0fd5 1c3e 30f3 1e3d 059b ba3b 9226 a3bd
00000170: 24d3 ad3d 3b76 f33c bcd1 1ebd b542 333d
00000180: 2218 5d3c c17b a6bd 1e45 bc3d c43b 5c3d
00000190: 2af1 a3bd 9d5f a6bd d1c3 5fbd 8ee2 b13d
000001a0: 39e2 bd3b 5b6d 52be 2586 f4bd 7fc9 5f3c
000001b0: 0911 2b3e e099 e63c 4549 2abe 1785 69be
000001c0: ad48 493d 23a3 013e 4545 013e dfac 3cbe
000001d0: 2e5f c5ba a411 dbbc 9906 993d aae4 913d
000001e0: 68ff 1bbe e659 04bd eb19 a3bd 2176 eb3d
000001f0: b3b5 60bd 31fd bbbd 585d 193c 37da babd
00000200: 0155 333e acb2 093e aabf 46be c4d0 91ba
00000210: 82f3 653c e0f0 053e 2675 0e3e f64e 4abe
00000220: 5f19 74bd 4bf6 5c3c 4bba 393e 2eaa 0d3e
00000230: efc6 a2bd 34fb e9bc e930 8c3c 3b01 eb3d
00000240: 85cd 1f3e 797f 6cbd f9c2 a4bc 14be b1bc
00000250: b777 9b3d 28c6 2e3d d77a 4a3e 5f5f 0b3e
00000260: b317 ee3d 3d11 323e 793f 313d ed43 d23d
00000270: 137f 9c3d 6df4 6c3e 8b4e 193d b757 1a3e
00000280: 56c8 ff3d a605 183e fb71 c73d 2c0b 4e3e
00000290: e2ae 52bd a605 b4bd a1b8 c8bc ec7f e5bd
000002a0: ca0c 473d 3091 0dbd e49f 483b 974b 40be
000002b0: 708c 29be c19d 0abe eb61 cb3b 9a5d 9f3d
000002c0: bb93 cdbc 6c8a 0e3e 9345 dc3d f5da cc3d
000002d0: 0973 e43d 2db6 373d 077d 223e edd0 6dbd
000002e0: 841f a33d d861 bbbd 935a 253d 727e 81bc
000002f0: 3e05 f53c 724a c53d 52ef 03be 96a4 ccbd
00000300: 2118 44be 81f1 54be 874a 8dbd 64ff 3dbe
00000310: 2714 85be 6063 36be f4af 62be 13a4 83be
00000320: 42d3 f03d d106 653c cc92 3e3c 81be fb3d
00000330: 6945 903d 5861 cfbc 7cd1 82bc a465 4c3b
00000340: 59df cd3c 0f2d ad3d 44c6 983d 9e0f ea3d
00000350: 4d09 28bd 0fbd 933d 5213 9b3d 1f87 c0bd
00000360: 516d 35bd 5ffe 1cbe b54b 53bc 74ff 11be
00000370: fb34 15be 520c 82bc 265d 153c c09d 9fbd
00000380: d88a 21be ff22 003e cd64 a63d 6c29 803d
00000390: 7356 20bd 16e4 97bd c33b 6abd d39b 143e
000003a0: b2ea 00bd 6c4b 63bd dc5d 8cbd c684 513d
000003b0: 7ac9 8ebc 14f3 ad3d ad40 b83d 2b44 bd3d
000003c0: df87 ce39 4e0c 303e 24f0 833d dbe1 48bd
000003d0: 2fdc 5b3c 6bc1 153e f53b 0f3d ca99 b93d
000003e0: 67a3 5b3c 0876 303d afa1 a4bd 5280 043d
000003f0: 2a98 783d 4a9d 793b 319a f8bd 80ad dd3d
-0.015034756 0.043282416 0.16688247 0.014883671 -0.080622725 -0.13496508 -0.10100102 -0.019508641
0.09744524 0.011068824 0.0045251967 -0.077453226 -0.053716015 0.09700159 -0.0027605682 0.014698849
0.020687785 -0.27493274 -0.06884202 0.17114845 -0.1003112 -0.01738095 -0.112312146 -0.12032617
0.13883093 0.041902285 -0.048047043 0.012764484 0.024504673 -0.06836476 -0.09058253 0.017209776
0.014377121 0.01515941 0.1117666 -0.0053769345 -0.12193621 0.021686822 -0.045268144 0.1930754
0.17951784 -0.013968597 -0.19642831 -0.03921861 0.29993603 -0.018509192 0.021254053 0.020486765
-0.027550248 0.21703568 -0.14532042 -0.09655211 0.0058249147 0.023192754 -0.17603774 0.0014432851
-0.041586958 -0.013244588 0.070696585 -0.04895102 -0.039585415 0.026165511 -0.20407629 -0.06582193
0.12439985 -0.0020484282 -0.06630931 -0.20613939 -0.026174981 0.08236158 0.07774611 -0.15252227
-0.24092941 -0.11751742 0.16028589 -0.14318831 -0.118249476 0.03127064 0.11783168 0.11924498
-0.112261996 -0.1477834 0.05282913 0.1452608 0.20390896 -0.16645777 -0.049824387 0.039571647
0.1531565 0.03880614 0.0056947493 -0.07966341 0.084875375 0.029719463 -0.038774237 0.04376479
0.013494523 -0.08129073 0.091928706 0.053767934 -0.08004983 -0.081237055 -0.054630104 0.0868579
0.00579479 -0.20549528 -0.119396485 0.01365888 0.16705717 0.028149545 -0.16629513 -0.22804676
0.049141575 0.12659888 0.1262408 -0.1842532 -0.0015058273 -0.02674181 0.074719615 0.07123692
-0.15234149 -0.032312296 -0.07963928 0.11497141 -0.054860782 -0.09179152 0.009360634 -0.091236524
0.17512895 0.13447064 -0.19409052 -0.0011124839 0.014035108 0.13080168 0.13911876 -0.19756684
-0.05959451 0.013486455 0.18137471 0.1383445 -0.079481 -0.028562166 0.017113166 0.11474844
0.15605743 -0.057738755 -0.020112501 -0.021697082 0.07591193 0.042669445 0.19773422 0.136106
0.11625614 0.17389388 0.043273423 0.10266862 0.07641425 0.23140116 0.03742842 0.15072523
0.12489383 0.14845905 0.09738537 0.20121449 -0.051436312 -0.0879014 -0.0245021 -0.1120604
0.04859618 -0.03456229 0.003061288 -0.18778835 -0.16557479 -0.13536741 0.006206741 0.07781525
-0.025094857 0.13919991 0.10755458 0.100027 0.11154754 0.04485147 0.15868007 -0.058060575
0.079649955 -0.091495216 0.04036958 -0.015807364 0.029909726 0.0963334 -0.12884262 -0.0999233
-0.1914983 -0.20795251 -0.068989806 -0.18554455 -0.25991938 -0.17811346 -0.22137433 -0.25711116
0.11759044 0.013978676 0.011631679 0.12292195 0.07044489 -0.025314972 -0.01596903 0.0031188512
0.025130915 0.0845586 0.07459691 0.1142876 -0.041024495 0.072137944 0.075720444 -0.09400772
-0.044293705 -0.1533141 -0.012896468 -0.14257604 -0.14570992 -0.015875015 0.009116447 -0.0779376
-0.15775621 0.1251335 0.08124695 0.062579006 -0.039144944 -0.07416551 -0.0571859 0.14512567
-0.031473823 -0.05549185 -0.0685384 0.051152013 -0.017430056 0.08493629 0.08996711 0.09241518
0.00039392614 0.17192194 0.064422876 -0.049043518 0.013419195 0.14624564 0.03496929 0.09062536
0.013405657 0.043081313 -0.08038651 0.03234894 0.06069199 0.0038088136 -0.12138785 0.10824108

conv1.bias f4 [6]
00000000: 5c80 083f 011a 323c d228 26be 60ba 2f3e
00000010: 7575 b13d b04f ab3e
0.5332086 0.010870458 -0.16226509 0.1716094 0.08664981 0.33459234

conv2.weight f4 [16, 6, 5, 5]
00000000: 0444 1d3d 3349 96bd ac37 3d3d b45d d9bc
00000010: dfc9 4f3d 86eb b63d e3e6 2cbd 1e50 95bd
00000020: 5848 8ebd fce5 b5bc 116f 1b3c 4df5 f4bc
00000030: 699e 0f3d 2723 90bd 08e7 12bd 1439 bf3d
00000040: fe92 29bd 0b9d 80bd 04e4 5ebd dea2 60bd
00000050: a6ac 593d 046b 94bc 0401 84bd 2c84 a23c
00000060: 97de 60bd 0d96 9f3d 4eba 913d 5eb6 9e3d
00000070: 2bbc b93d c721 c83c 07d0 053b c993 ccbc
00000080: 9a19 12bd 450f 2ebd f727 debc 3740 8abd
00000090: de03 a73d 9fe1 793b 096b c1bc 7c88 89bd
000000a0: a38c 84bd 717e 6c3c 15d2 923d b8aa 2b3d
000000b0: 016e 883d 35e7 09bd e22f e93c fe9a 833c
000000c0: e072 dcbc 07e2 a43d f0e4 bebc 2443 3abd
000000d0: 3874 b63c a53b 8d3c 4824 35bb 5189 11bd
000000e0: b6ce 85bc ff23 44bd fe1c 4fbc ff8a 013d
000000f0: bbbf a53d be9d acbc 83bf d53c 6111 98bc
00000100: 2635 f9bc 835a 71bd 35b1 52bd 2150 54bc
00000110: 478d e2bc ad04 8abd b2ca 54bd 0108 743d
00000120: 6428 e1bc 7ffd 003d 56ce 7ebc aa61 17bd
00000130: 60b2 713d 671d 8f3d 303c 943d 4055 90bc
00000140: 2973 b73b cd26 203d e674 38bc 7c83 243d
00000150: 18ad bdbc a8fd febc 772b 3b3d cb81 e03d
00000160: c409 be3d b572 013d c934 c93a be94 bfbc
00000170: 6ed2 b33c 8fba 0e3e 6b4f 063e 6fb9 313d
00000180: 50e0 cb3d 4372 b23b a0d7 db3d 0796 f83d
00000190: beb7 1c3c 71db 90bc 23ad aabd 3528 5e3d
000001a0: 7be1 43bd 46f7 913d e2a6 11bb f16b 1a3d
000001b0: f688 41bd 4538 d2bb 4b06 a03d dd45 513d
000001c0: ab7c 773b d3a8 db3c aeb9 66bd c2ab b53d
000001d0: ebe2 07bd bea7 14bd c87a 90bd 90ae 04bd
000001e0: dfba a13c 689f 643d 684c 14bd 4ec8 b7bd
000001f0: 0ea4 efbb 0065 78bd e13a b73d 5b46 97bc
00000200: 76d3 453d 4387 70bc 742b b0bc 5885 2dbd
00000210: b527 a23c b789 123d 1f76 a33d edea 673d
00000220: 7046 7abd a59d 363d adfb a53d 3047 013c
00000230: 05d4 993d 5225 8b3d 91d6 7d3d 727c d7bc
00000240: ba2d 84bc 7ac5 0d3c 14f0 9f3d e731 3bbd
00000250: 6fc3 bd3d 6052 17bd 3eb6 c43d 5e1d 073e
00000260: e636 ac3d 8154 9a3c 9cfe f4bc 62f5 d63d
00000270: 1f84 abbc ca87 783d 87dd bc3c e187 0abd
00000280: d867 283d 91fe c73c 58ab 953c b2b7 8ebd
00000290: 4f78 b73c 454d 2d3d 2418 0abb eabb 6a3d
000002a0: 9fac 98bd c33e ebbc 1006 ea3d 31c3 993c
000002b0: 7278 6f3d cbd7 10bd c12f c03c f9a0 f83d
000002c0: 7f5b c63c a4a7 3d3d e4b3 01bc 660d da3c
000002d0: 6dec 3a3d 6896 163e 66c5 2e3e a7b1 023d
000002e0: 929c b33d d3e8 b13d 3298 3b3e 6cfe d83d
000002f0: f4e6 dbbc 96ed 1a3d b45c 123e 40e3 2e3e
00000300: 3ca2 1d3e 4d14 ed3d 7eae 51bd f3f4 f63d
00000310: 34a5 153e 05fe 203e 2217 51bb 53b9 653c
00000320: e971 a73d fc86 6fbd 3f11 83bd f467 52bd
00000330: c550 153d acca 83bd 5e92 77bc c1ce 25bd
00000340: 5c72 83bd f89d 143d 4d5c 3ebd 2994 e2bc
00000350: 5cae 423c 54d1 133d fc71 81bd 4e7a e8bc
00000360: c8d4 31bd 1caa 96bd 8af8 91bd f641 fb3c
00000370: b7a0 8cbd 9e6c e4bd 2087 85bd c460 61bb
00000380: 4ea0 9cbd ec9b 913b 201e 4dbd 7d58 a7bd
00000390: f325 da3c 01d3 853c 75f7 133d 3d02 9dbd
000003a0: e0b8 7abd 0244 f53d 3a87 d63c 5616 98bd
000003b0: 07b5 3c3d 4b07 523d 56b6 e43d 9639 1b3d
000003c0: 85f9 80bd e811 59bd c849 aa3d c4e7 d43d
000003d0: 40ec be3d a0b3 7c3d 1e5b 49bd 3268 0e3d
000003e0: ac5f 7d3d e3e7 36bd 8bb1 22bd e609 e73c
000003f0: fb2f debd a8d5 91bd 312a 36bd c914 ae3d
0.038394943 -0.073381804 0.04619567 -0.026533939 0.05072963 0.08931641 -0.04221238 -0.07290672
-0.06947392 -0.022204392 0.0094869295 -0.029902125 0.03506318 -0.07037955 -0.03586486 0.09337059
-0.04139995 -0.062799536 -0.05441667 -0.054842822 0.053143166 -0.018117435 -0.06445506 0.019838415
-0.05489978 0.07792292 0.07115613 0.077496275 0.09069093 0.024430169 0.0020418183 -0.024972813
-0.035668947 -0.04249503 -0.027118666 -0.06750529 0.081550345 0.0038128865 -0.023610609 -0.067154855
-0.06472137 0.014434443 0.07168976 0.041910857 0.066616066 -0.03366776 0.028465215 0.016065117
-0.026910245 0.08050924 -0.023302525 -0.045474187 0.022272214 0.017240355 -0.0027640034 -0.035531346
-0.016333919 -0.04788589 -0.01264119 0.031626698 0.0809321 -0.021071311 0.026092296 -0.018562974
-0.030420851 -0.05892421 -0.05143853 -0.012958557 -0.027655257 -0.06739173 -0.051951118 0.059577946
-0.02748508 0.031491753 -0.015552124 -0.036958374 0.059008002 0.0698803 0.07238042 -0.017618775
0.005598445 0.039099503 -0.0112583395 0.040164456 -0.023153827 -0.031126812 0.04569575 0.10962256
0.092792064 0.031603534 0.0015350814 -0.023386355 0.021950927 0.13938354 0.13116233 0.043389734
0.099548936 0.00544575 0.107344866 0.121379904 0.009565292 -0.017682763 -0.083338045 0.054237563
-0.047822457 0.07127242 -0.0022224714 0.037700597 -0.047249757 -0.0064153993 0.078137 0.051092017
0.0037763517 0.0268139 -0.05632942 0.08870651 -0.03317539 -0.036292784 -0.07054669 -0.03239304
0.019742427 0.055816084 -0.03620568 -0.08973752 -0.007313258 -0.060643196 0.08946777 -0.018466165
0.048297368 -0.014680686 -0.021505095 -0.042363495 0.019794324 0.035775866 0.07981514 0.056620527
-0.06110233 0.044583935 0.08104644 0.007890508 0.07511143 0.06794228 0.061972205 -0.026304457
-0.016135085 0.008653039 0.07809463 -0.045701887 0.092657916 -0.036943793 0.096050724 0.13194796
0.084089085 0.018839123 -0.029906563 0.10496022 -0.020937024 0.060676374 0.023054851 -0.03382099
0.041114658 0.024413379 0.01827018 -0.06968631 0.022396235 0.042310018 -0.0021071518 0.057308115
-0.074548 -0.02871645 0.114269376 0.018769832 0.058464475 -0.035362046 0.02346027 0.12140078
0.02421355 0.046302453 -0.007916424 0.026617717 0.04563563 0.14705813 0.17067489 0.031907704
0.08770098 0.08686986 0.18319777 0.10595402 -0.026843525 0.037824236 0.14293176 0.17078876
0.15393919 0.11576138 -0.0511918 0.12058439 0.14613801 0.15721901 -0.0031904657 0.0140212355
0.081760235 -0.05847834 -0.06399774 -0.05136867 0.03645398 -0.06435141 -0.01511058 -0.04048038
-0.06418297 0.036283463 -0.046474744 -0.027658539 0.011882391 0.036088303 -0.06320569 -0.028378632
-0.043415815 -0.073566645 -0.07127483 0.030671101 -0.068665914 -0.111535296 -0.06519914 -0.0034389952
-0.07647763 0.004443636 -0.050077558 -0.08171175 0.026629424 0.016335966 0.036124665 -0.076664425
-0.061211467 0.11975862 0.026187528 -0.07426135 0.04607108 0.051276486 0.1116759 0.037896715
-0.06297592 -0.052995592 0.08314854 0.10395768 0.09322405 0.06169474 -0.04915916 0.034767337
0.061858818 -0.04465474 -0.0397201 0.028202962 -0.10848995 -0.0712083 -0.04447383 0.08500058

conv2.bias f4 [16]
00000000: ac84 0c3a 3b6b c03d 7e1f fc3d 0538 7dbd
00000010: 2ce7 443d 0f0c 22bd 226d c6bd 684d c9bc
00000020: f506 a2bd fdd4 af3d 3c22 713d c56b 5ebd
00000030: 6cc9 01bd bef1 093e d644 803d 8012 b6bd
0.0005360346 0.093954526 0.12310694 -0.061821003 0.048072025 -0.03956228 -0.09688784 -0.024573043
-0.07911483 0.08585546 0.05887054 -0.054301996 -0.03168623 0.13471124 0.062631294 -0.08890247

fc1.weight f4 [120, 400]
00000000: ddf4 0f3d 3ba5 b7bc e3cd 05bd c199 08ba
00000010: 5d19 213d d281 3fbd 71b9 0abd 839f 063d
00000020: 48b4 e83c 9f8b 4bbd b48d 263b a6f3 4cbc
00000030: 3b32 2bbd e849 32bc 3665 0abd 4619 80bc
00000040: 3f56 3d3d 1d95 24bd 6cda 173d 366b f7bb
00000050: a789 143c 0fe7 32bd aa71 943c acc9 2cbd
00000060: 2a78 0abd ac23 fc3c 8e30 86bc 743a 98bc
00000070: 075e 1abd c13f e6bc 1926 3cbd ff5a 0a3d
00000080: b80d 49bd 73cc bebb fa11 19bd bb79 91bc
00000090: 8c26 033c 29e2 25bd 221b db3c 1a41 303d
000000a0: 72bc 163c 1d2a 293d 45cb 4abd a91d 35bd
000000b0: 01f2 64bc 8384 0f3d 0e71 c13c b717 bbbc
000000c0: b517 27bd eb2a 34bc f6d4 8cbc 50c3 76bc
000000d0: 00ee 1dbc fbed 22bd 0794 fbbc 147f d8bc
000000e0: b6d0 15bc 0287 ccbc 200d d6bc f5bb 96bc
000000f0: 2c8f 9fbc 20f1 143d 6008 79bc 207b d5bc
00000100: eb90 073d 6968 05bc ad2f 493c 1deb 2e3d
00000110: 1058 45bc dc50 0dbd beaa 0e3d 0698 9d3c
00000120: 32dd 213d e852 27bc 81d8 1bbd c35c 1dbd
00000130: 77f6 f8bc 827e 24bd b13c d6bc c234 9bbc
00000140: bb05 3c3d cecd 2a3d 0ce0 14bd 7d58 033c
00000150: f1e8 99bb f456 09bd 9191 93bc c1eb 3b3c
00000160: 8d39 48bb 1a6e bf3b 8557 2ebd 4a52 b2bc
00000170: 0ed1 133d 00ce 38bc 65e0 083d db28 dbbc
00000180: 7a14 713c 93ac 433d fbe3 88bc 6cf0 8f3c
00000190: b001 ccbb 4bfe 0d3d 1417 4ebd 072f b5bb
000001a0: d43c febc 1d3c 6c39 321b 0e3c 95e5 d7bc
000001b0: f3e9 0e3d 43f1 0abc 6aab 9dbc dbf4 3cbd
000001c0: be69 a7bc 6625 23bc ada5 0f3c 9c1f f63c
000001d0: 4d8f c13c 3f78 a93c 8250 8ebb 7e75 9d3c
000001e0: f872 57bc 8b1b 24bd 6230 8cbc da1f 0abc
000001f0: cc56 283c adfc 2b3d bd33 01bd c7f7 54bc
00000200: 7d1a 21bd 6ac2 23bd 078d 473d 6daa 3c3d
00000210: b7f1 183d 20ee 54bc 794d 13bb d0a6 9bbc
00000220: 38f9 2b3d 217c 16bc 8dab 1b3d 4d40 c93c
00000230: 0b65 1b3d 9d1d 13bd 896c 31bd 4b68 183c
00000240: 0826 0bbd 72fe 863c 72fc 3f3d bd76 3ebd
00000250: 4703 b2bc af76 d5bc 5fdd 2a3d a6e3 3cbd
00000260: 8ea9 c83c 1ec8 57bd 4a56 ce3c b3ba f6bc
00000270: 04e4 333d 51e6 a43a e0ed 003d 02de c6bb
00000280: 3bb1 edbc e60a 053d e555 123d fa3f 44bd
00000290: 508b c43c f1fd 2b3d b75c 17bd 207e d33c
000002a0: 993f 26bd 7668 54bd e9e8 4cbd d2dc 23bd
000002b0: 7811 00bd a310 20bd 9676 e53b dd0c 333c
000002c0: 385b 4c3b 4fa7 2c3d dc58 923c 8a3a 82bc
000002d0: 2d69 57bc 7b9b 4ebc 5d3d 893c 3570 153d
000002e0: af71 d138 a4b6 0cbd 8eff fabc 98c4 093d
000002f0: a103 f63c 40b7 883c cecd 573c fe1d c83b
00000300: d099 e53c e676 3f3d 1b6f cb3c c0b5 fc3b
00000310: 2840 453d 5fff 1d3c 78ea 96bc ec16 a9bc
00000320: c37f 0a3a 6725 4abd 7a4d 043d 62c6 1dbd
00000330: 5bac 183d 2296 213d fdeb 7dba 4aa4 a53c
00000340: f550 c0bb 55fc 06bd 07b0 5dba 1fde bf3b
00000350: 238f 0b3d bb09 27bd 958b d93c 7741 ba3c
00000360: 4dfb 303d 4681 813c 5ba7 7a3c f9bd 54bc
00000370: aebe 12bd 30a7 ef3c 7a23 65bc 8fbe 243d
00000380: 0714 dc3b d7e3 16bd fffb b63b 5e11 14bd
00000390: 52bd bf3c 13ce e2bc 5550 cf3c 9985 903c
000003a0: a039 f5bc e85d 883c 3ee8 05bd 0cc9 16bd
000003b0: ae76 48bc fcb7 18bc 4547 8b3c 758a 8c3c
000003c0: 7abc ef3c ff0f 54bc ba27 2ebd 11c0 403d
000003d0: bb8e a9bc aa85 5abc 1f25 3f3d 2934 12bd
000003e0: 42aa ff3b 88d7 d13c f6cf debb 62b4 6f3c
000003f0: 9cd5 1abc 1bf0 debb 4df4 26bd ee54 03bd
0.03514563 -0.022417655 -0.032667052 -0.00052108994 0.03933083 -0.046754666 -0.033868257 0.032866966
0.028406277 -0.0496937 0.0025414051 -0.012509262 -0.04179595 -0.010881878 -0.03378793 -0.015637051
0.04622483 -0.040181268 0.037073538 -0.0075506223 0.009066022 -0.043677386 0.018120605 -0.042184517
-0.033806004 0.030778728 -0.016380575 -0.01858256 -0.037687328 -0.028106572 -0.04593477 0.033778187
-0.04908535 -0.005822712 -0.03737066 -0.01775824 0.008004796 -0.040498886 0.026746336 0.043030836
0.009200202 0.041299928 -0.04951026 -0.04421774 -0.013973714 0.035038482 0.023613479 -0.022838457
-0.040794093 -0.010996561 -0.017191391 -0.015061215 -0.009639263 -0.039777737 -0.030710233 -0.026427783
-0.009143999 -0.02496672 -0.026129305 -0.018400172 -0.01947745 0.036362767 -0.015199751 -0.026059687
0.03309719 -0.008142569 0.012279433 0.04270469 -0.0120449215 -0.03450094 0.0348308 0.01923753
0.03951759 -0.0102126375 -0.03804827 -0.038418543 -0.030390961 -0.04015971 -0.026151987 -0.018946055
0.045903903 0.041700177 -0.03634648 0.008016703 -0.004696958 -0.03353019 -0.018013747 0.011469782
-0.003055188 0.0058419826 -0.042563934 -0.021767754 0.036088042 -0.011279583 0.033417124 -0.02675288
0.014714355 0.047772 -0.016710272 0.017570697 -0.006225787 0.03466634 -0.050314978 -0.0055292877
-0.031034864 0.00022529108 0.008673476 -0.02635459 0.03489108 -0.008480373 -0.019246776 -0.04613195
-0.020436164 -0.009957647 0.0087675275 0.03004437 0.023627901 0.02068722 -0.0043430934 0.019221064
-0.013149969 -0.04006533 -0.017112914 -0.008430446 0.0102746 0.041989017 -0.031543482 -0.012998528
-0.0393319 -0.03998033 0.04871848 0.04606097 0.037339892 -0.012996227 -0.0022476597 -0.01900044
0.04198572 -0.009184868 0.0380054 0.024566794 0.03793816 -0.035916913 -0.043316398 0.009302209
-0.033971816 0.01647875 0.04687161 -0.046499956 -0.021730078 -0.02605757 0.041715022 -0.04611554
0.024494912 -0.05268108 0.02518763 -0.030118322 0.043918625 0.0012580847 0.031476855 -0.006068946
-0.029015174 0.032481097 0.035726447 -0.047912575 0.02399221 0.041990224 -0.036953654 0.025816977
-0.040587995 -0.051857434 -0.050026808 -0.040005513 -0.03126666 -0.039078366 0.007002662 0.01092836
0.00311823 0.042151745 0.017864637 -0.015897054 -0.013147634 -0.012610312 0.016752893 0.036483962
9.987072e-05 -0.034353867 -0.030639436 0.033634752 0.030031027 0.016688943 0.013171626 0.006107091
0.028027445 0.04674425 0.024833253 0.007712096 0.048156887 0.009643405 -0.01842235 -0.020640813
0.000528332 -0.049352076 0.03230045 -0.03851927 0.037273746 0.03944982 -0.0009686349 0.02021994
-0.005869026 -0.032955486 -0.0008456711 0.0058553363 0.034072053 -0.040780764 0.026555816 0.022736294
0.04320841 0.015808713 0.01529869 -0.012984746 -0.035826378 0.029254526 -0.013985509 0.040220793
0.0067162546 -0.03683838 0.0055842395 -0.036149375 0.023405705 -0.027686154 0.02530686 0.01764183
-0.029934704 0.01664634 -0.032692187 -0.036812827 -0.012235327 -0.009321209 0.017001757 0.017155865
0.029264677 -0.012943267 -0.042518355 0.04705817 -0.020697942 -0.013337532 0.04666626 -0.035694275
0.0078022787 0.025615469 -0.006799693 0.014630409 -0.0094503425 -0.006803525 -0.040760327 -0.032063417

fc1.bias f4 [120]
00000000: ab78 4ebd 9edc 7e3d 6f49 3fbd fc4e 02bd
00000010: b1e5 8f3c 8d0e d1bc 37ee 99bc 0884 29bd
00000020: 2e2f 803c 848c a1bc 4283 e53c 83e7 cf3b
00000030: 6efa 3c3d 2b1e 06bd accf efbc 0e38 f5bb
00000040: d6ee 2b3c 2e7b a1bc a4d6 ad3d 9168 ba3c
00000050: facc 973c 2535 fd3c d74b d93c 4acc 223c
00000060: ffa5 9fbc 397b 933c a3ce 983d 38ca 443d
00000070: bcf7 59bc b193 173c 871d 40bd 41dc 043c
00000080: b8ce 5c3d 569a 8fbd 96ca 493d ee90 f53c
00000090: 92e2 f7bc 2c8e 12bd 895a 9fbc 402c 4f3d
000000a0: d087 1d3d a4e5 8f3c 8eb6 8c3c c70e 6c3d
000000b0: 13b2 7e3c 746c 683c cbe7 48bc 628b a03c
000000c0: 02b0 bf3c 77f8 673c f4f9 ad3c 597c 8a39
000000d0: 77b7 d8bc 02ce 8e3c 1288 39bd 3cf2 ddbc
000000e0: f0c9 ca3c 40b7 63b9 8e63 c13c 3bbe 923c
000000f0: 1d43 38bd 7e38 b63c 2111 773d 71db 3c3d
00000100: bb6b 00bc 1378 70bd 48a2 dcbc 0eb0 12bd
00000110: 1b98 1ebd 4d25 6ebc fd50 1ebd ab43 50bc
00000120: efcf 963d e6ea 463d fac9 e6bb 1633 5ebc
00000130: 55ca 98bc 4de1 32bc e31e 00bc 9326 593c
00000140: d73f 29bd e98d f43b c0d4 2f3d 79d0 1bbd
00000150: c9b8 cc3c 7f6a 573d 870b 54bd ffd5 3f3d
00000160: 7b1b 2e3d c109 413b 8f05 cf3b 5320 cf3c
00000170: 86f0 513d e86c 77bc d7ed a53c 1cc2 3fbd
00000180: 2895 3e3c 0764 23bc 184a 04bd 45e8 b23c
00000190: 0f14 0abd fb8b af3c 0e36 6a3d 4188 ffbc
000001a0: 0699 3c3d 62a2 e0bc 1087 b13c d2e9 47bd
000001b0: 1577 9ebc edd4 39bc f8d6 403c fa41 21bd
000001c0: 63fe 19bd 3609 1e3d b5b1 76bd 93df 983c
000001d0: ed81 adbb 1375 dbbc 040d 81bc b2d2 29bd
-0.050408047 0.062222116 -0.04670089 -0.031813607 0.01756558 -0.025519634 -0.018790348 -0.04138568
0.015647497 -0.019720323 0.02801669 0.006344737 0.046137266 -0.032743614 -0.02927383 -0.007483489
0.010493955 -0.019712057 0.08488205 0.02275494 0.018530358 0.03090913 0.026525421 0.009936402
-0.019488333 0.018003093 0.07461288 0.048044413 -0.013303693 0.009251521 -0.04690316 0.008109153
0.05390808 -0.07011859 0.049265467 0.029976334 -0.030259404 -0.035780117 -0.01945235 0.05057931
0.0384596 0.017565556 0.017176893 0.05763128 0.015545386 0.0141860135 -0.012262295 0.019597713
0.023399357 0.01415836 0.021237351 0.00026414057 -0.02645467 0.017432217 -0.045295782 -0.027093045
0.024754494 -0.00021716673 0.023607042 0.017912975 -0.04498588 0.022243734 0.06031907 0.046107713
-0.007838185 -0.05870826 -0.02693285 -0.03581243 -0.038719278 -0.01453526 -0.038651455 -0.012711446
0.07363879 0.04856386 -0.0070431205 -0.0135619845 -0.018651167 -0.010917974 -0.007819864 0.013253826
-0.041320648 0.007463206 0.042927504 -0.038040612 0.024990456 0.052591797 -0.051768806 0.046834942
0.042506676 0.0029455277 0.0063178013 0.025283968 0.05125477 -0.015101649 0.020255012 -0.046815977
0.011632241 -0.009972579 -0.032297224 0.02183927 -0.033710536 0.021429053 0.057180457 -0.0311929
0.046044372 -0.02742118 0.021670848 -0.048806973 -0.019343892 -0.011342269 0.011770003 -0.03936956
-0.037596118 0.038583003 -0.06022807 0.018661296 -0.0052950294 -0.026789224 -0.015753277 -0.0414607

fc2.weight f4 [84, 120]
00000000: 075a bd3d 2ee4 babc 689a 49bd a26a 61bd
00000010: 2a83 6a3c e92d 69bd 6886 96bd f3a8 45ba
00000020: 7329 883d 5843 a0bd a1eb 653d bde4 853d
00000030: 7b3f aabd 55ba 8e3b 4f7c 4ebd 1e70 1a3d
00000040: 1bc0 2a3d 4bbd 163d bcce d6bc 2ae4 7e3d
00000050: 7330 2fbd 998b a2bc 586e 1fbd cb26 66bd
00000060: 83ca 92bd 59e7 b13d f90e 19bd 2765 943d
00000070: 8b5e e63b f1e6 7bbd 4f5c 91bd 0f42 bf3d
00000080: 523a fabc d746 b2bd d4e6 f3bc 1717 b2bb
00000090: ea42 943d cde3 86bd e701 d6bd cfe1 983d
000000a0: 733c 353d 0bbd 65bd 8302 f9bc c113 b23d
000000b0: d9c4 ea3c 52fe 623d 5927 2ebd 7cb1 d23c
000000c0: 9115 05bd 7ce9 8dbd 0a79 0dbb 1bd4 a33a
000000d0: 0157 f9bc 08bc 7c3a 1fca 07bd f87e 17bd
000000e0: 4f93 86bc fe0f a4bd df48 a33d 2011 f3bd
000000f0: 6d59 7ebd a846 be3d d053 ae3d f3a8 00bd
00000100: df50 49bb 3668 f53c 745e aa3d af24 a7bd
00000110: 5947 b43d b787 633d 3d3a 84bd 3f4e 89bd
00000120: 1e3f 163e 57b4 043d 28fb 04bd 7cd7 533d
00000130: a275 8abd 76d0 b53d 4f7c a5bd 6f09 ca3d
00000140: f8b8 e9bd 212a f3bc 7d4a e93d 700f 5dbd
00000150: 9e5a 7fbd 8943 b63c 4639 46bd 7d51 803b
00000160: 9ac6 9b3d 3618 8dbd b3be aa3c d930 633d
00000170: 68e6 b9bd bc81 933d 055b c93d 1bd1 6cbd
00000180: 46b8 f93c 772f 9b3d 2583 afbd 03d0 53bd
00000190: 3b88 82bc b05b 4fbd 46d3 323c 5692 1a3d
000001a0: f8f6 e73d 3d58 3fbd ccba d83c 4b5d f43c
000001b0: 41a4 8bbb fb74 3abd ad9a 863d bb77 4cbd
000001c0: 47a0 00bc 8c69 72bd 0616 fa3c ce23 d83d
000001d0: f42d 0dbd 468c 163d 88a5 80bd d17c a1bd
000001e0: 4f9d 2abd b457 683c a750 33bd 2174 d73c
000001f0: a8cc af3d 296d a93d 9d1a 95bd fd2d a33d
00000200: 3cd5 56bc 1ae6 89bd abe1 f4bc 175b 4bbd
00000210: 3d1e 9abd a5da f33c 4c52 abbd 904c a83d
00000220: ffe0 adbc ec23 82bd f181 97bd b72d 223d
00000230: 5eb5 41bd bb30 703d 78f7 8cbd 6d32 c2bc
00000240: 744f 8b3d 83d0 943c fee5 90bd 2b24 a03d
00000250: 6d63 4d3d d486 bbbc e2db 98bd 1518 943d
00000260: 3f5e ac3d 14e0 e33d 30de 2e3d b180 563d
00000270: aec3 8e3c 4191 a53d c86c cc3d 68fa c93d
00000280: d1cb 9abd fbdb 99bd dbdf 8ebd b243 b9bd
00000290: 738b 483b ad91 c7bc 1151 f83d 8e18 4dbd
000002a0: aebb b7bd 391f b13d 9f22 f93d f5d6 dd3d
000002b0: 6a69 57bd 0a56 4bbd ce66 41bd 9f53 cd3c
000002c0: c573 b63d 0a5c 103d 25d9 583c 5880 85bc
000002d0: aac0 233c f621 ad3d 5a49 7f3d 8226 56bd
000002e0: 106e fd3b 1741 f4bc a901 203d d113 0dbd
000002f0: cad0 9b3d 5fda f13c 88e5 d0bd f8d1 d1bd
00000300: cb25 323d 4542 923d ea6f f3bc 1324 fa3d
00000310: e174 39bd 6382 42bd 8457 d83d 3ef2 153d
00000320: 97b9 a83d 871f ccbc 1d74 bfbd ecb2 cd3d
00000330: 1a1a 34bb 51cc 91bd 8035 103d ff95 e2bc
00000340: 4b6d 60bc df7b d7bc 83d1 a1bd 4376 14bd
00000350: 3067 a73d ce62 febc 7621 c3bc 0be3 3b3d
00000360: ad6d b4bd 3925 d0bd e538 c13d 6903 88bd
00000370: 8a8c ac3d 8385 edbc 0434 a03d 7ef9 db3d
00000380: 4c15 1dbc 4530 9cbd 79c4 5dbd 7957 ac3c
00000390: 56be a13d a457 203d eac2 613d e19e 53bd
000003a0: 9a4e 99bc 964c b5bd 2a45 b83c fd81 713c
000003b0: 95c7 bb3d 27c6 4b3d 1758 7cbd 9607 0dbd
000003c0: da17 b8bb 5d7f 84bc 7ca7 b03d 1a44 0fbd
000003d0: 4e38 babd ee6f febc 72e3 033d 8afe 18bb
000003e0: 69e4 cf3b d153 d6ba c12f 843a 8255 a2bc
000003f0: acba 2f3d a582 f3bc 53eb 943b 6862 33bc
0.09245687 -0.022813883 -0.04921952 -0.055033334 0.0143134985 -0.05692855 -0.07349855 -0.0007540129
0.06648531 -0.07825345 0.056132916 0.06537769 -0.08312889 0.0043557086 -0.05041152 0.03770458
0.041687112 0.036801618 -0.026221626 0.062229313 -0.042770814 -0.019841956 -0.03892359 -0.05618934
-0.07167532 0.08686704 -0.037367795 0.07245856 0.0070303134 -0.06149954 -0.070976846 0.093387716
-0.030545387 -0.08704918 -0.029773153 -0.0054348814 0.07239325 -0.06586418 -0.104495816 0.074649446
0.044247102 -0.05608849 -0.030396705 0.08695174 0.028658317 0.05541832 -0.042517994 0.025719397
-0.03249127 -0.06929299 -0.0021587037 0.0012499125 -0.030436995 0.0009641056 -0.033151742 -0.03698632
-0.016427664 -0.08010863 0.079728834 -0.11868501 -0.062097 0.0929082 0.0851208 -0.031411123
-0.003071837 0.029956918 0.08318797 -0.08161294 0.08802671 0.05554935 -0.064564206 -0.067043774
0.14672515 0.032398548 -0.032466084 0.051719174 -0.06760718 0.088776514 -0.080803506 0.098650806
-0.11412233 -0.029683175 0.11391161 -0.0539698 -0.06234228 0.022249 -0.048394464 0.003915964
0.076062396 -0.068893835 0.020842886 0.055466507 -0.0907715 0.07202479 0.09831814 -0.057816606
0.030483376 0.075774126 -0.08569936 -0.051712047 -0.0159341 -0.05062455 0.010914629 0.037737213
0.113264024 -0.04671501 0.02645626 0.029829642 -0.004261524 -0.045521718 0.06572471 -0.04991887
-0.007850713 -0.05918269 0.03052808 0.10553704 -0.034467652 0.03675487 -0.062815726 -0.07885135
-0.041653927 0.014181066 -0.043778088 0.026300492 0.08583957 0.08272774 -0.07280467 0.07967756
-0.0131123625 -0.067333415 -0.029892763 -0.049647417 -0.07525299 0.029767344 -0.08365306 0.08217728
-0.02122545 -0.06354508 -0.07397831 0.03959438 -0.047292106 0.058640223 -0.068831384 -0.023705686
0.06802264 0.018165832 -0.070751175 0.078193985 0.050143648 -0.02289144 -0.07463814 0.07231156
0.084164135 0.11126724 0.042692363 0.052368823 0.017427292 0.080843456 0.09981686 0.09862214
-0.07558406 -0.07512661 -0.06976291 -0.09046115 0.0030600696 -0.024361456 0.12124837 -0.050072245
-0.08971344 0.086485334 0.121648066 0.108320154 -0.052590765 -0.0496426 -0.047217183 0.025064288
0.089088 0.035244025 0.013235365 -0.01629655 0.009994665 0.08453743 0.062325813 -0.052282818
0.0077340677 -0.029816194 0.039064083 -0.034442727 0.07608183 0.029523073 -0.102000296 -0.102451265
0.043493073 0.07141546 -0.02971645 0.12213912 -0.04527748 -0.047487628 0.10563567 0.036607973
0.082385235 -0.024917377 -0.09348319 0.10043892 -0.0027481378 -0.071190484 0.03520727 -0.027659414
-0.0136979325 -0.026304184 -0.07901289 -0.036245596 0.08173978 -0.031052973 -0.023819666 0.045870822
-0.088099815 -0.1016335 0.0943468 -0.066412754 0.08425243 -0.028994327 0.07822421 0.10740946
-0.009587597 -0.07626394 -0.05414245 0.021037804 0.07897632 0.03914608 0.055117525 -0.05166519
-0.018714238 -0.08852498 0.022493917 0.014740464 0.091689266 0.04974952 -0.061607447 -0.034431063
-0.0056180777 -0.016174013 0.08625695 -0.034977056 -0.090927705 -0.031059232 0.03219933 -0.0023345076
0.0063443673 -0.0016351884 0.0010085033 -0.019816164 0.042902634 -0.029725382 0.0045446544 -0.010948755

fc2.bias f4 [84]
00000000: 3a8a 063e 0ad0 af3d 6350 8cbd 352b 79bd
00000010: 2013 873d d6cc babd 1e7b 9f3d 7080 153c
00000020: 1d4c e5bd 03d2 8a3d f13b 59bd 58c2 a93d
00000030: d77d 82bd 8a03 87bd 0a35 d43d 7d42 f83d
00000040: efae 033e f248 9dbd f984 0e3e f7d5 a33d
00000050: 191f 25bd ee78 29bd 5ac9 8abc a7a9 a5bc
00000060: d70e da3d a2bb 2b3d 61d8 ce3d 2250 22bd
00000070: d441 eb3c da91 6e3b 1809 583d 2884 acbd
00000080: e71d abbd 834c b53c 18c3 95bd 6dc4 71bc
00000090: e945 7fbd bc0d e73d 912e 953c 585c cdbb
000000a0: 3d60 11bd 2df4 a5bd 6d90 05be b63a b8bd
000000b0: 0550 e33d 9418 76bd 9611 03be 06eb 023c
000000c0: 8a56 bbbd a67b e1bc f7ed 833d 229f 26bd
000000d0: 8fc2 83bc a200 12bd 8e8c c33c 7aa7 7dbd
000000e0: 56b0 0d3c fe21 26bd 8fe1 31bc 2fe6 12bd
000000f0: 88e2 61bd 2ea9 5ebd b821 d7bc fec2 283d
00000100: ad17 eebd 56d2 a0bd cf45 e6bc fe65 d73d
00000110: a306 0cbd 9fce 98bc 1762 6d3d 6b74 583d
00000120: bda5 a9bc 150b ba3d 9f1f 743d eab8 de3d
00000130: a91b b63d 7281 5a3d 1486 593d 4503 5a3c
00000140: a81e 9bbc cdd7 393e 54d5 1fbc d1fb a63b
0.13138667 0.08584602 -0.0685127 -0.06083222 0.06595445 -0.091211006 0.077871546 0.00912486
-0.11196158 0.06778338 -0.05303568 0.08289021 -0.06371658 -0.06592472 0.10361679 0.12122057
0.128597 -0.07679929 0.13917913 0.07999795 -0.04031286 -0.041375093 -0.016941715 -0.020222498
0.10647362 0.041926987 0.10099865 -0.0396272 0.028717913 0.0036402852 0.052743047 -0.08423644
-0.08355313 0.02213121 -0.07312602 -0.014756304 -0.06232253 0.112819165 0.018210681 -0.0062671117
-0.03549217 -0.081032135 -0.13043375 -0.08995573 0.11099247 -0.060082033 -0.12799677 0.007990604
-0.091473654 -0.02752478 0.064418726 -0.040679105 -0.016083984 -0.035645135 0.023870733 -0.061927296
0.008647999 -0.04055976 -0.010857 -0.03586405 -0.055147678 -0.05436056 -0.026261196 0.041201584
-0.116256095 -0.078526184 -0.02810946 0.105175 -0.034186017 -0.018653212 0.057954874 0.0528454
-0.020708913 0.09084145 0.05960047 0.10875113 0.088919945 0.053346105 0.053106382 0.013306444
-0.018935516 0.18148728 -0.009755451 0.005095937

fc3.weight f4 [10, 84]
00000000: 4417 443e 667b c83d b130 203c 61db 92bd
00000010: 9626 0ebe d869 373d 4b61 a9ba 7a5d d23d
00000020: 7b6c b7bd 46f4 42bd eefa 463d 991f b43d
00000030: 09f8 d4bd 78d1 cf3d be18 e83d 49d7 1f3e
00000040: 1e58 373e d1ba fdbc 3332 3d3e f24f 4c3c
00000050: 360c ce3c ade4 a6bd c6d3 55bd 3b9a d53c
00000060: a43e 043d 64af 99bc eed1 423c b629 0cbe
00000070: 365e 9abd 8794 8c3d ddb5 05bd 5aa2 6bbd
00000080: 8462 b8bc 53eb c33d 5461 87bd 68e7 233c
00000090: 5424 17bd 6ee4 f6bd 73da 1a3d 16f0 233c
000000a0: 6c9d 52bd e8f8 963c 9ce2 26bc 66cb 5ebd
000000b0: 986d 75bd 8ef2 9e3d b847 93bb 590e 93bc
000000c0: 07b2 943c 189e 333d 508a febd 0a54 6bbc
000000d0: c8bb f4bd 8426 9dbd bced 2dbc b8ca cf3d
000000e0: 0b94 44bd 170b 303d 1eee 8a3c 30d3 d63c
000000f0: c89e 903d eda6 013d ede3 243d 37c9 dd3d
00000100: d26f cb3d 3486 bb3d 5318 603c 1462 02be
00000110: 513f 853d 0661 8ebd 4de6 d6bd 1e10 353d
00000120: e0ce c3bd 5000 0dbe b574 af3d 3729 0a3e
00000130: 4f07 3dbb 09a3 0dbe e3c9 a13d b98c 95bc
00000140: 9d83 363c 3f16 153e 8820 d8bc 2576 ca3d
00000150: 5842 17be 2294 f13d b286 08bd 8dba 09bd
00000160: b051 22be f15c fabb 3bfb 0c3e ed9d ddbd
00000170: 9122 be3d 0430 e3bd 4fd7 c13d 3d64 cc3c
00000180: 69c4 b43d 60ff c43d 7113 ce3d 94ea b5bd
00000190: 105e 19be 92a8 163e 840a 683d 25dd 403e
000001a0: 7839 a83c f6d4 cb3d c014 d1bb a43e 07bd
000001b0: 09ff 533d 3e69 a0bd 2b89 adbd 24e8 123e
000001c0: c8ad bb3d df29 963b 030f 20be 978a 683e
000001d0: cc81 8ebc f603 f6bb 37b7 593c 25db 2c3d
000001e0: adbd 69bd 3204 e7bd 40c5 823d 0df8 813e
000001f0: 975b 17bd 2186 b43c 9c2f 073e 16cd 71bd
00000200: e5aa 4cbe 0337 67bd b500 813c f0b2 873d
00000210: fd52 18bd 36ba 59bd 8f7c 863d 305c 8b3d
00000220: 1147 2bbe 7427 68bd 4ef7 d33b ac9e c43d
00000230: 4ca7 d63d 8bb4 343d ceaf 45be c0be dd3c
00000240: ca50 dabc e8dc 583d 5753 9fbd b83b e0bd
00000250: fb94 da3d 803f 99bd 0dc6 aebd 6e79 69be
00000260: 8a74 6abc 247a 52bd a5df 2abd 3610 2abd
00000270: 6446 de3d 2a6d 18bd 0c0a 263e 3825 a6bc
00000280: c1b7 6f3d 1c62 62be 0695 d3bd f591 b73c
00000290: d4bf 7b3d d3ca 7b3b 22b3 a4bd 86ee 2fbe
000002a0: ec3d 103e b157 a0bd ff95 93bc e2cc de3d
000002b0: db68 143c cd09 db3c e72a 5e3c e5bf 023e
000002c0: 8ec8 17be eeed 91bd 3704 263d df5d 08be
000002d0: efc7 763d 4f7e 96bd a92c 6cbd 23f1 fcbc
000002e0: a179 6a3e 6705 fb3c 7a58 70bc 8b8c f83d
000002f0: 5e09 4b3c df71 b23c 604c d13d 9a41 bf3d
00000300: 2cd9 afbc a1dc e83c fcec b23d c086 22be
00000310: f8cb b13d ddd7 c0bd 1a2e 523e 45e6 96bc
00000320: 0b18 8ebd 9ae1 8b3c 3db1 c6bd f320 83bd
00000330: daf9 d93d 7bc0 a43d 981f 583c 3029 1fbd
00000340: a46f 1b3d 9d45 673d 93cf 30be 9fde 9dbd
00000350: 7651 193e 762f f53d 0cf7 923d a7b7 aebc
00000360: 6f63 c1bd 8089 953d fcd5 323e 35ea 0ebd
00000370: 54b0 723d 70be 14bc 100c 853c e137 373d
00000380: ea30 9e3d e317 733d 74d9 0a3d c302 cf3d
00000390: ed82 87bd 575c 01bd bbd2 d23d 82c5 023e
000003a0: e91b 28be 6166 19bd 3f4e 353e 2b08 873d
000003b0: b15c c43d ce89 b53d 9fd7 bf3d 360c 3c3d
000003c0: 1339 63bd 611c 11be dfaf 383c 5813 ce3d
000003d0: 5c9a 0c3d 853e 643d 9735 6f39 b739 983d
000003e0: d4cb cbbd a964 a13d baa4 40bd 58e8 adbd
000003f0: acc5 3b3c 9575 3abd f8a9 40bd 7f1a aa3d
0.191495 0.097891614 0.009777234 -0.071707495 -0.13881907 0.044778675 -0.0012922672 0.102717355
-0.08956238 -0.04759624 0.04857915 0.08795089 -0.103988715 0.10147375 0.11332844 0.15609469
0.17904708 -0.03097287 0.1847618 0.012470232 0.025152307 -0.08149085 -0.052203916 0.02607452
0.0322863 -0.01876039 0.011890871 -0.13687786 -0.075375006 0.06864267 -0.03264414 -0.057527877
-0.022507913 0.09566369 -0.06610361 0.010003902 -0.03689988 -0.12055288 0.037805986 0.010005971
-0.05141966 0.018429235 -0.010185864 -0.054393195 -0.05991897 0.077611074 -0.0044946335 -0.017951177
0.018151296 0.04385194 -0.12428725 -0.014363298 -0.11949879 -0.07673362 -0.010615762 0.101460874
-0.047992747 0.042979326 0.016959246 0.026223749 0.07061535 0.031653333 0.04025643 0.10829394
0.099334374 0.091564566 0.013677674 -0.12732726 0.06506217 -0.069520995 -0.10493145 0.044204824
-0.09560943 -0.1376965 0.08567182 0.13492285 -0.0028843468 -0.13831724 0.07899835 -0.018255578
0.0111397775 0.14559267 -0.0263827 0.098858155 -0.14771402 0.11795832 -0.03333158 -0.033625174
-0.15851474 -0.007640474 0.13767712 -0.108211376 0.09283937 -0.11093143 0.09464895 0.024950141
0.08826525 0.096190214 0.10062302 -0.08882633 -0.14977288 0.14712742 0.056650653 0.1883436
0.020535216 0.099527285 -0.0063806474 -0.033018723 0.051756892 -0.07832573 -0.08473428 0.14346367
0.091640055 0.004582628 -0.15630727 0.22709118 -0.017395876 -0.0075077964 0.013288311 0.04220118
-0.057065655 -0.11280097 0.06385279 0.2538456 -0.03695258 0.022036614 0.13201755 -0.059033476
-0.19987066 -0.056448948 0.015747407 0.066259265 -0.03718852 -0.0531561 0.065667264 0.06804693
-0.16726328 -0.05667825 0.00646869 0.09600577 0.10481128 0.04411749 -0.19305345 0.027068496
-0.026649851 0.052945048 -0.07779568 -0.109488904 0.10672947 -0.07482815 -0.08533869 -0.22800228
-0.014310012 -0.051386014 -0.04171719 -0.041519366 0.1085327 -0.037213482 0.1621477 -0.02028142
0.05852485 -0.22107738 -0.10331158 0.022408465 0.06146224 0.0038420453 -0.08041979 -0.17180833
0.14086121 -0.07829226 -0.01801586 0.10878922 0.009058203 0.026738072 0.013560033 0.12768514
-0.148226 -0.071254596 0.040531363 -0.13317059 0.060249265 -0.0734831 -0.05765978 -0.030876702
0.2289796 0.030642224 -0.014669532 0.121361814 0.01239237 0.021782814 0.102196455 0.093386844
-0.02146586 0.028425517 0.087366074 -0.15871716 0.08681482 -0.09416173 0.20525399 -0.018420348
-0.069381796 0.017075349 -0.09701774 -0.06402769 0.106433585 0.08044525 0.013191126 -0.03885764
0.037948266 0.056462873 -0.17266683 -0.07708477 0.14972481 0.11971943 0.07176027 -0.021327807
-0.094427936 0.07301617 0.17464441 -0.034891326 0.05925019 -0.009078607 0.016241103 0.044731025
0.07724173 0.059348952 0.033898786 0.10107949 -0.06616769 -0.031582203 0.102941 0.12770656
-0.16416897 -0.03745115 0.1770563 0.06593355 0.09587992 0.08864175 0.09367298 0.045910083
-0.055474352 -0.14170982 0.0112724 0.10062283 0.034326896 0.055723686 0.0002281278 0.07432883
-0.099509865 0.078805275 -0.047032095 -0.08491582 0.011460703 -0.04552229 -0.047037095 0.08305835

fc3.bias f4 [10]
00000000: 53bb 2e3e cf24 85be ac38 553e 0379 573d
00000010: f1b3 593e 109d 053d e182 0e3d d4d6 93bd
00000020: 9f44 8b3e 8f9d 5cbe
0.17063646 -0.26004645 0.208224 0.05260564 0.21260048 0.03262049 0.034792785 -0.072187096
0.2720079 -0.21544479
